…
  },
  "initializer_range": 0.02,
  "intermediate_size": 2048,
  "label2id": {
    "LABEL_0": 0,
    "LABEL_1": 1,
    "LABEL_2": 2
  },
  "layer_norm_eps": 1e-12,
  "max_position_embeddings": 512,
  "model_type": "bert",
  "num_attention_heads": 8,
  "num_hidden_layers": 4,
  "pad_token_id": 0,
  "position_embedding_type": "absolute",
  "softmax_act": "2relu",
  "transformers_version": "4.20.0.dev0",
  "type_vocab_size": 2,
  "use_cache": true,
  "vocab_size": 30522
}

model architecture: BertForSequenceClassification(
  (bert): BertModel(
    (embeddings): BertEmbeddings(
      (word_embeddings): Embedding(30522, 512, padding_idx=0)
      (position_embeddings): Embedding(512, 512)
      (token_type_embeddings): Embedding(2, 512)
      (LayerNorm): LayerNorm((512,), eps=1e-12, elementwise_affine=True)
      (dropout): Dropout(p=0.1, inplace=False)
    )
    (encoder): BertEncoder(
      (layer): ModuleList(
        (0): BertLayer(
          (attention): BertAttention(
            (self): BertSelfAttention(
              (query): Linear(in_features=512, out_features=512, bias=True)
              (key): Linear(in_features=512, out_features=512, bias=True)
              (value): Linear(in_features=512, out_features=512, bias=True)
              (dropout): Dropout(p=0.1, inplace=False)
            )
            (output): BertSelfOutput(
              (dense): Linear(in_features=512, out_features=512, bias=True)
              (LayerNorm): LayerNorm((512,), eps=1e-12, elementwise_affine=True)
              (dropout): Dropout(p=0.1, inplace=False)
            )
          )
          (intermediate): BertIntermediate(
            (dense): Linear(in_features=512, out_features=2048, bias=True)
            (intermediate_act_fn): GELUActivation()
          )
          (output): BertOutput(
            (dense): Linear(in_features=2048, out_features=512, bias=True)
            (LayerNorm): LayerNorm((512,), eps=1e-12, elementwise_affine=True)
            (dropout): Dropout(p=0.1, inplace=False)
          )
        )
        (1): BertLayer(
          (attention): BertAttention(
            (self): BertSelfAttention(
              (query): Linear(in_features=512, out_features=512, bias=True)
              (key): Linear(in_features=512, out_features=512, bias=True)
              (value): Linear(in_features=512, out_features=512, bias=True)
              (dropout): Dropout(p=0.1, inplace=False)
            )
            (output): BertSelfOutput(
              (dense): Linear(in_features=512, out_features=512, bias=True)
              (LayerNorm): LayerNorm((512,), eps=1e-12, elementwise_affine=True)
              (dropout): Dropout(p=0.1, inplace=False)
            )
          )
          (intermediate): BertIntermediate(
            (dense): Linear(in_features=512, out_features=2048, bias=True)
            (intermediate_act_fn): GELUActivation()
          )
          (output): BertOutput(
            (dense): Linear(in_features=2048, out_features=512, bias=True)
            (LayerNorm): LayerNorm((512,), eps=1e-12, elementwise_affine=True)
            (dropout): Dropout(p=0.1, inplace=False)
          )
        )
        (2): BertLayer(
          (attention): BertAttention(
            (self): BertSelfAttention(
              (query): Linear(in_features=512, out_features=512, bias=True)
              (key): Linear(in_features=512, out_features=512, bias=True)
              (value): Linear(in_features=512, out_features=512, bias=True)
              (dropout): Dropout(p=0.1, inplace=False)
            )
            (output): BertSelfOutput(
              (dense): Linear(in_features=512, out_features=512, bias=True)
              (LayerNorm): LayerNorm((512,), eps=1e-12, elementwise_affine=True)
              (dropout): Dropout(p=0.1, inplace=False)
            )
          )
          (intermediate): BertIntermediate(
            (dense): Linear(in_features=512, out_features=2048, bias=True)
            (intermediate_act_fn): GELUActivation()
          )
          (output): BertOutput(
            (dense): Linear(in_features=2048, out_features=512, bias=True)
            (LayerNorm): LayerNorm((512,), eps=1e-12, elementwise_affine=True)
            (dropout): Dropout(p=0.1, inplace=False)
          )
        )
        (3): BertLayer(
          (attention): BertAttention(
            (self): BertSelfAttention(
              (query): Linear(in_features=512, out_features=512, bias=True)
              (key): Linear(in_features=512, out_features=512, bias=True)
              (value): Linear(in_features=512, out_features=512, bias=True)
              (dropout): Dropout(p=0.1, inplace=False)
            )
            (output): BertSelfOutput(
              (dense): Linear(in_features=512, out_features=512, bias=True)
              (LayerNorm): LayerNorm((512,), eps=1e-12, elementwise_affine=True)
              (dropout): Dropout(p=0.1, inplace=False)
            )
          )
          (intermediate): BertIntermediate(
            (dense): Linear(in_features=512, out_features=2048, bias=True)
            (intermediate_act_fn): GELUActivation()
          )
          (output): BertOutput(
            (dense): Linear(in_features=2048, out_features=512, bias=True)
            (LayerNorm): LayerNorm((512,), eps=1e-12, elementwise_affine=True)
            (dropout): Dropout(p=0.1, inplace=False)
          )
        )
      )
    )
    (pooler): BertPooler(
      (dense): Linear(in_features=512, out_features=512, bias=True)
      (activation): Tanh()
    )
  )
  (dropout): Dropout(p=0.1, inplace=False)
  (classifier): Linear(in_features=512, out_features=3, bias=True)
)
bert.embeddings.word_embeddings.weight
bert.embeddings.position_embeddings.weight
bert.embeddings.token_type_embeddings.weight
bert.embeddings.LayerNorm.weight
bert.embeddings.LayerNorm.bias
bert.encoder.layer.0.attention.self.query.weight
bert.encoder.layer.0.attention.self.query.bias
bert.encoder.layer.0.attention.self.key.weight
bert.encoder.layer.0.attention.self.key.bias
…
