…
  "intermediate_size": 1200,
  "label2id": {
    "LABEL_0": 0,
    "LABEL_1": 1,
    "LABEL_2": 2
  },
  "layer_norm_eps": 1e-12,
  "max_position_embeddings": 512,
  "model_type": "bert",
  "num_attention_heads": 12,
  "num_hidden_layers": 4,
  "pad_token_id": 0,
  "position_embedding_type": "absolute",
  "pre_trained": "",
  "softmax_act": "2relu",
  "structure": [],
  "transformers_version": "4.20.0.dev0",
  "type_vocab_size": 2,
  "use_cache": true,
  "vocab_size": 30522
}

model architecture: BertForSequenceClassification(
  (bert): BertModel(
    (embeddings): BertEmbeddings(
      (word_embeddings): Embedding(30522, 312, padding_idx=0)
      (position_embeddings): Embedding(512, 312)
      (token_type_embeddings): Embedding(2, 312)
      (LayerNorm): LayerNorm((312,), eps=1e-12, elementwise_affine=True)
      (dropout): Dropout(p=0.1, inplace=False)
    )
    (encoder): BertEncoder(
      (layer): ModuleList(
        (0): BertLayer(
          (attention): BertAttention(
            (self): BertSelfAttention(
              (query): Linear(in_features=312, out_features=312, bias=True)
              (key): Linear(in_features=312, out_features=312, bias=True)
              (value): Linear(in_features=312, out_features=312, bias=True)
              (dropout): Dropout(p=0.1, inplace=False)
            )
            (output): BertSelfOutput(
              (dense): Linear(in_features=312, out_features=312, bias=True)
              (LayerNorm): LayerNorm((312,), eps=1e-12, elementwise_affine=True)
              (dropout): Dropout(p=0.1, inplace=False)
            )
          )
          (intermediate): BertIntermediate(
            (dense): Linear(in_features=312, out_features=1200, bias=True)
            (intermediate_act_fn): QuadActivation()
          )
          (output): BertOutput(
            (dense): Linear(in_features=1200, out_features=312, bias=True)
            (LayerNorm): LayerNorm((312,), eps=1e-12, elementwise_affine=True)
            (dropout): Dropout(p=0.1, inplace=False)
          )
        )
        (1): BertLayer(
          (attention): BertAttention(
            (self): BertSelfAttention(
              (query): Linear(in_features=312, out_features=312, bias=True)
              (key): Linear(in_features=312, out_features=312, bias=True)
              (value): Linear(in_features=312, out_features=312, bias=True)
              (dropout): Dropout(p=0.1, inplace=False)
            )
            (output): BertSelfOutput(
              (dense): Linear(in_features=312, out_features=312, bias=True)
              (LayerNorm): LayerNorm((312,), eps=1e-12, elementwise_affine=True)
              (dropout): Dropout(p=0.1, inplace=False)
            )
          )
          (intermediate): BertIntermediate(
            (dense): Linear(in_features=312, out_features=1200, bias=True)
            (intermediate_act_fn): QuadActivation()
          )
          (output): BertOutput(
            (dense): Linear(in_features=1200, out_features=312, bias=True)
            (LayerNorm): LayerNorm((312,), eps=1e-12, elementwise_affine=True)
            (dropout): Dropout(p=0.1, inplace=False)
          )
        )
        (2): BertLayer(
          (attention): BertAttention(
            (self): BertSelfAttention(
              (query): Linear(in_features=312, out_features=312, bias=True)
              (key): Linear(in_features=312, out_features=312, bias=True)
              (value): Linear(in_features=312, out_features=312, bias=True)
              (dropout): Dropout(p=0.1, inplace=False)
            )
            (output): BertSelfOutput(
              (dense): Linear(in_features=312, out_features=312, bias=True)
              (LayerNorm): LayerNorm((312,), eps=1e-12, elementwise_affine=True)
              (dropout): Dropout(p=0.1, inplace=False)
            )
          )
          (intermediate): BertIntermediate(
            (dense): Linear(in_features=312, out_features=1200, bias=True)
            (intermediate_act_fn): QuadActivation()
          )
          (output): BertOutput(
            (dense): Linear(in_features=1200, out_features=312, bias=True)
            (LayerNorm): LayerNorm((312,), eps=1e-12, elementwise_affine=True)
            (dropout): Dropout(p=0.1, inplace=False)
          )
        )
        (3): BertLayer(
          (attention): BertAttention(
            (self): BertSelfAttention(
              (query): Linear(in_features=312, out_features=312, bias=True)
              (key): Linear(in_features=312, out_features=312, bias=True)
              (value): Linear(in_features=312, out_features=312, bias=True)
              (dropout): Dropout(p=0.1, inplace=False)
            )
            (output): BertSelfOutput(
              (dense): Linear(in_features=312, out_features=312, bias=True)
              (LayerNorm): LayerNorm((312,), eps=1e-12, elementwise_affine=True)
              (dropout): Dropout(p=0.1, inplace=False)
            )
          )
          (intermediate): BertIntermediate(
            (dense): Linear(in_features=312, out_features=1200, bias=True)
            (intermediate_act_fn): QuadActivation()
          )
          (output): BertOutput(
            (dense): Linear(in_features=1200, out_features=312, bias=True)
            (LayerNorm): LayerNorm((312,), eps=1e-12, elementwise_affine=True)
            (dropout): Dropout(p=0.1, inplace=False)
          )
        )
      )
    )
    (pooler): BertPooler(
      (dense): Linear(in_features=312, out_features=312, bias=True)
      (activation): Tanh()
    )
  )
  (dropout): Dropout(p=0.1, inplace=False)
  (classifier): Linear(in_features=312, out_features=3, bias=True)
)
06/29/2022 15:41:22 - WARNING - datasets.fingerprint - Parameter 'function'=<function main.<locals>.preprocess_function at 0x7f82e2167d08> of the transform datasets.arrow_dataset.Dataset._map_single couldn't be hashed properly, a random hash was used instead. Make sure your transforms and parameters are serializable with pickle or dill for the dataset fingerprinting and caching to work. If you reuse this transform, the caching mechanism will consider it to be different from the previous calls and recompute everything. This warning is only showed once. Subsequent hashing failures won't be showed.
…
